scripts/classifiers/aesthetic/aes-B32-v0.safetensors (safetensors, 657858 bytes, 5 tensors)

fc1.bias f4 [256]
0	0x3d25cd8a	0.04047922
1	0xbc588d02	-0.013217213
2	0x3caeb6e4	0.021327443
3	0x3ca2e6ee	0.019885506
4	0x39a462ee	0.00031354226
5	0xbd239cde	-0.039944522
6	0xbc8ffd2c	-0.017576776
7	0x3d0a5b2f	0.033778366
8	0x3d9cbc54	0.07653108
9	0xbcd92514	-0.026506938
10	0x3d513a50	0.051081
11	0x3d808378	0.06275076
12	0x3cfb28ff	0.030659197
13	0x3bf4d346	0.007471475
14	0xbcb28d8e	-0.021796014
15	0xbbdfd46e	-0.0068307435
16	0xbd2c677b	-0.042090874
17	0xbcdf6f2b	-0.027274689
18	0xbc5a89ed	-0.013338548
19	0xbb57bcf4	-0.0032919021
20	0x3ccbb08a	0.024864454
21	0xbbc7e265	-0.0060999864
22	0x3d13a2bf	0.03604388
23	0xbc54fe4c	-0.013000082
24	0xbc2365c9	-0.009972998
25	0xbcdc2643	-0.026873713
26	0x3bbe3602	0.005804778
27	0x3cc01fa6	0.023452591
28	0xbba85723	-0.0051373406
29	0xbc53795d	-0.012907353
30	0xbd290a95	-0.041269857
31	0x3d182c84	0.03715183
32	0xbc4b5a3a	-0.012411648
33	0xbb97238d	-0.0046123923
34	0xbbf71a1b	-0.007540954
35	0x3d487210	0.048936903
36	0x3c8341fc	0.016022675
37	0x3d95a59b	0.07306977
38	0x3cc8e5b2	0.02452359
39	0x3c4b7931	0.012419031
40	0x3cf94c0f	0.030431775
41	0x3cd8461f	0.026400624
42	0x3cf14e6f	0.029456345
43	0x3cf2e3be	0.029649612
44	0x3d195959	0.037438724
45	0xb9c17072	-0.00036895607
46	0x3c181f26	0.00928477
47	0x3cc872a1	0.024468722
48	0xbd24fcdd	-0.04028021
49	0x3c303c52	0.010756569
50	0xbd222ab2	-0.0395915
51	0xbc15d97a	-0.009146089
52	0xbb453323	-0.0030090294
53	0xbd37edfa	-0.044904687
54	0x3d663de7	0.05621138
55	0x3b146d61	0.0022648203
56	0x3d2ad9b0	0.04171151
57	0xbca02550	-0.019549042
58	0xbb5685ab	-0.003273348
59	0x3ce934c9	0.028467553
60	0x3d83417b	0.06408974
61	0xbce072be	-0.027398463
62	0xbd3e9d78	-0.046536893
63	0xbd34ab95	-0.044108946
64	0x3d0acbce	0.03388577
65	0xbd1374f8	-0.036000222
66	0xbce821c3	-0.028336411
67	0xbc2a2858	-0.010385595
68	0x3d72b55a	0.05925498
69	0x3b72eeb1	0.003706854
70	0xbc3ac94a	-0.01140053
71	0xbd1b62c8	-0.037936002
72	0x3b2a7d0c	0.0026014475
73	0x3d51c952	0.051217385
74	0x3d368ddd	0.044568885
75	0x3cd20210	0.02563575
76	0x3ae5e5e3	0.0017539825
77	0xbb8362f1	-0.0040095975
78	0x3d55ced4	0.0521992
79	0xbcd8f83a	-0.026485551
80	0xbca390f1	-0.019966574
81	0xbcb351c5	-0.021889577
82	0x3d45a618	0.048254102
83	0xbcf00e67	-0.029303743
84	0x3caa4236	0.020783525
85	0x3caf6a3e	0.021412965
86	0x3d33ee90	0.043928683
87	0x3d27f9d7	0.04100975
88	0x3c7bbb51	0.015364484
89	0x3ccbb659	0.024867224
90	0x3bcb09fd	0.006196259
91	0x3cdbc04b	0.02682509
92	0x3d690a57	0.056894626
93	0x3d59a659	0.053137157
94	0x3d03f601	0.03221703
95	0x3d54d6ff	0.05196285
96	0x3c7767b2	0.0151004065
97	0xbbef27d9	-0.0072984514
98	0x3d5bad15	0.05363186
99	0x3d81f67c	0.06345841
100	0x3ca1201e	0.019668635
101	0xbc9044fe	-0.017611023
102	0xbc306bb5	-0.010767867
103	0x3d642432	0.05569858
104	0xbd00aee2	-0.03141678
105	0x3cd58b65	0.026067445
106	0x3c720eae	0.014774008
107	0x3d73e55a	0.0595449
108	0x3d3e2aad	0.046427418
109	0xbcbe2697	-0.02321176
110	0x3b9a56be	0.0047100475
111	0xbd19a818	-0.037513822
112	0x3d409778	0.04701945
113	0x3d0d1a12	0.03444869
114	0xbced052c	-0.02893313
115	0x3ce34efc	0.027747624
116	0x3d6ccd38	0.0578129
117	0x3d11015a	0.03540168
118	0x3d1260eb	0.03573696
119	0x3d4534df	0.048146125
120	0x3d1382a5	0.036013264
121	0x3d2e4c9f	0.04255354
122	0x3ca4cde9	0.020117717
123	0xbca82ae2	-0.02052826
124	0x3cc1065d	0.023562605
125	0x3cc7896e	0.024357524
126	0x3b9261a3	0.0044672056
127	0x3af73e5b	0.0018863188
128	0x3d34b6d5	0.044119675
129	0xbabdcc81	-0.0014480503
130	0xbccb0ae3	-0.024785465
131	0x3d260282	0.040529735
132	0x3ba26bd6	0.0049567027
133	0x3d162e2c	0.036665127
134	0x3ba7c9b0	0.0051204786
135	0xb924d228	-0.00015718548
136	0xbcad5c85	-0.02116228
137	0x3d1f7121	0.038926248
138	0x3c074796	0.0082568135
139	0x3cd1d1a2	0.025612656
140	0x3cdd04a9	0.026979761
141	0xbc4d0dbd	-0.0125154825
142	0x3ca65f2d	0.020309055
143	0x3d4d54c4	0.050129667
144	0xbd2a1e77	-0.04153296
145	0xbccf70ea	-0.025322396
146	0x3c255cb5	0.010092904
147	0x3d33b01b	0.04386912
148	0xbc728d34	-0.014804173
149	0x3c380a5a	0.011232937
150	0x39fb4593	0.00047926288
151	0xbc01d8e3	-0.007925245
152	0xbbe6575b	-0.0070294566
153	0x3d391b18	0.045191854
154	0xbbe58070	-0.0070038363
155	0xbbebe75c	-0.007199211
156	0x3d9a7b8a	0.075430945
157	0x3c993118	0.018700168
158	0xbbe8c355	-0.0071033635
159	0xbd18c598	-0.037297815
160	0xbc8b5ff2	-0.017013524
161	0x3d98ef94	0.07467571
162	0x3d1ed78a	0.038779773
163	0x3c7b2c20	0.015330344
164	0xbc9ca837	-0.01912318
165	0xbcc13b0e	-0.02358773
166	0x3c3e06e8	0.011598326
167	0x3d9ab92f	0.07554852
168	0x3c41569d	0.011800435
169	0x3ccfd732	0.025371168
170	0xbca52068	-0.020157054
171	0x3d48cb74	0.049022153
172	0x3d1da364	0.0384859
173	0x3c87d4a9	0.016580896
174	0x391fbb0b	0.000152331
175	0xbd11f9bb	-0.035638552
176	0xbccb2f92	-0.024802957
177	0xbcf76604	-0.030200012
178	0x3d4b6a28	0.049661785
179	0xbc6f9ae4	-0.014624331
180	0x3bc70894	0.0060740206
181	0x3d14162b	0.036153954
182	0xbc379171	-0.0112041095
183	0xbac51cad	-0.0015038453
184	0x3d43bbe3	0.047786605
185	0x3c5d6d61	0.0135148475
186	0x3cc967ff	0.024585722
187	0x3c11b018	0.008892082
188	0x3c8f55b1	0.017496916
189	0x3d3dc8f2	0.046334215
190	0x3d080907	0.033211734
191	0x3c816cf8	0.01579903
192	0xbd1d4c0e	-0.03840261
193	0x3ae29ba0	0.0017288812
194	0x3d32b7bf	0.043632265
195	0x3d252125	0.040314812
196	0x3c2500b8	0.010070972
197	0x3cd61baf	0.026136247
198	0x3c2b10c7	0.010441012
199	0x3cc7d747	0.024394644
200	0xbc664014	-0.014053363
201	0x3d3bf3c8	0.045886785
202	0x3c1aca13	0.009447592
203	0x3b7b9d8a	0.003839346
204	0x3ba87cd5	0.0051418343
205	0x3d28f41e	0.041248433
206	0x3d2f364d	0.042776395
207	0x3ce17444	0.02752126
208	0xbc13c2b7	-0.009018592
209	0x3d076aa2	0.033060677
210	0x3d8cbccb	0.06871947
211	0x3c5e3c0d	0.013564122
212	0x3d8e5d25	0.0695136
213	0x3d6e55de	0.058187358
214	0x3bda002b	0.006652852
215	0xbcf6d0c1	-0.030128838
216	0xbc83e8c6	-0.016102206
217	0x3d224d5d	0.03962456
218	0xbb61bdb4	-0.0034445347
219	0x3d39641e	0.045261495
220	0x3d1789dd	0.03699671
221	0x3b1a3dad	0.0023535297
222	0x3b89d988	0.00420684
223	0x3b81b918	0.0039588325
224	0x3d30f5ab	0.043203037
225	0xbc9c9118	-0.019112155
226	0x3c0212df	0.0079390695
227	0x3d26c76a	0.04071752
228	0x3cdb8cb5	0.026800493
229	0x3b5d3315	0.003375237
230	0x3b6d00d3	0.0036163821
231	0x3d0e33c1	0.034717325
232	0x3dabbfe9	0.08386213
233	0x3d0754d8	0.033039898
234	0x3d2c6091	0.04208428
235	0x3cc31ac0	0.023816466
236	0xbd0d8b8d	-0.034556914
237	0x3cebd74c	0.028789185
238	0x3d1c52a7	0.03816476
239	0x3d83791f	0.064195864
240	0xbc95d8db	-0.018291881
241	0xbd123bde	-0.035701625
242	0x3cc7b03a	0.024376024
243	0x3d8b1820	0.06791711
244	0x3d6352a1	0.055498723
245	0x3d31cacc	0.043406293
246	0xbb9e5445	-0.004831823
247	0x3cdbf87b	0.026851883
248	0x3d724d5b	0.059155803
249	0xbccb4d95	-0.024817267
250	0x3c3db61c	0.011579063
251	0xbcc56cbc	-0.0240997
252	0xbc9f86e1	-0.019473495
253	0xbd21c96a	-0.039498724
254	0x3c24f773	0.010068762
255	0x3bc0c62a	0.005882998

fc1.weight f4 [256, 512]
0	0xbc9e487d	-0.019321674
1	0x3d84057d	0.06446359
2	0xbddaf38b	-0.106909834
3	0xbca772e0	-0.020440519
4	0xbd69a8c0	-0.0570457
5	0xbd9308bc	-0.071794
6	0xbdc6e1f7	-0.09711068
7	0xbbc644cb	-0.006050681
8	0xbc49c82b	-0.01231579
9	0xbcd98906	-0.026554596
10	0x3d23b6e7	0.03996935
11	0xbce301bf	-0.027710794
12	0xbd3b8240	-0.045778513
13	0xbd236ada	-0.039896823
14	0xbd2b2db0	-0.041791618
15	0x3d1640fd	0.03668307
16	0xbd258769	-0.04041234
17	0xbc0852ae	-0.008320494
18	0x3da11cf1	0.07866848
19	0xbc67c724	-0.0141466
20	0x3d5992eb	0.053118628
21	0x3d521266	0.051287077
22	0x3cdaca70	0.026707858
23	0x3c92db76	0.017926913
24	0xbd2158c5	-0.039391298
25	0x3b305f0a	0.0026912116
26	0xbcf7fd5f	-0.030272184
27	0xbce72992	-0.028218064
28	0xbcc3b52c	-0.0238901
29	0x3b7d6b77	0.003866879
30	0x3c4b661b	0.012414481
31	0xbd2a8c9c	-0.041638
32	0x3d8bc0ad	0.06823859
33	0x3d3e4cd2	0.04645998
34	0x3d227998	0.039666742
35	0xbc1c948d	-0.009556902
36	0xbcf1a59e	-0.029497918
37	0xbcdd46f3	-0.02701137
38	0xb9d1e433	-0.00040033608
39	0x3b331eca	0.0027331584
40	0xbc700767	-0.014650202
41	0x3d4a1c90	0.049343646
42	0xbd8243e4	-0.06360605
43	0xbd069821	-0.032859925
44	0xbd284f55	-0.041091282
45	0xbc08de89	-0.008353838
46	0xbd0ccf88	-0.034377605
47	0xbcbe112a	-0.023201544
48	0x3ca053ab	0.019571146
49	0xbc836d6f	-0.016043393
50	0x3c20e940	0.009821236
51	0x3b82d6ba	0.0039928826
52	0xb9abe08f	-0.0003278297
53	0xbd471cf5	-0.0486116
54	0x3d04dfae	0.03243988
55	0xbc552ad7	-0.013010702
56	0xbd0b03a6	-0.033939026
57	0xbd2a40c8	-0.041565686
58	0x3bad208c	0.005283421
59	0x3d8b38cf	0.06797945
60	0xbce723d6	-0.02821533
61	0x3d09f80d	0.033683825
62	0x3d00b336	0.03142091
63	0x3a82b2b3	0.0009971469
64	0xbd808cb1	-0.06276835
65	0x3d747b50	0.059687912
66	0x3da9cd53	0.082911156
67	0xbb723127	-0.0036955567
68	0xbc4b0ccf	-0.0123931905
69	0xbccbc282	-0.024873022
70	0x3d24340d	0.040088702
71	0x3d899d4c	0.06719455
72	0xbc69662e	-0.014245553
73	0x3c8be529	0.017077046
74	0xbda72090	-0.08160508
75	0x3c0c5edf	0.008567541
76	0x3ca9801b	0.020690968
77	0xbd5dbbfd	-0.054134358
78	0xbd66684a	-0.0562518
79	0xbbe05dd4	-0.0068471227
80	0x3badcb97	0.005303811
81	0xbcbd0201	-0.023072245
82	0x3b057a10	0.0020366944
83	0x3bf7ca46	0.0075619547
84	0xbb0b9f35	-0.0021304612
85	0xbd81c6eb	-0.06336769
86	0x3a866404	0.0010253196
87	0x3d43a4a1	0.047764424
88	0xbcd446c9	-0.02591266
89	0xbb414189	-0.0029488525
90	0xbd09132b	-0.033465546
91	0xbcd1326b	-0.025536736
92	0x3c8d0ccb	0.017218014
93	0x3c7a2eb6	0.015269926
94	0x3c61eeac	0.013789814
95	0x3ca62b72	0.020284388
96	0xbc5651db	-0.013081039
97	0x3c8722a6	0.016496014
98	0x3cfafbfe	0.030637737
99	0xbd34b729	-0.044119988
100	0xbd949bdd	-0.07256291
101	0x3c52f590	0.0128759295
102	0x3cb4a2e9	0.022050338
103	0xbc9ac25f	-0.018891511
104	0xbbea4edd	-0.0071505145
105	0x3dc3bb88	0.09557253
106	0x3c844f8e	0.016151216
107	0xbd99b49a	-0.0750515
108	0x3d2fa638	0.042883128
109	0x39fc8946	0.00048167462
110	0x3bc8e63b	0.0061309612
111	0xbd18ba0f	-0.037286814
112	0xbd8bb5d1	-0.06821788
113	0x3d6a0555	0.05713399
114	0x3dbfa616	0.0935785
115	0x3d082844	0.033241525
116	0x3d64c4ea	0.055851854
117	0x3d7aac0b	0.06119923
118	0x3dd12857	0.10212772
119	0xbd93ed0a	-0.07222946
120	0x3d3aed6c	0.04563658
121	0xbd16e34c	-0.03683786
122	0xbd988957	-0.074480705
123	0x3d4528c1	0.04813457
124	0xbd19fdaf	-0.037595447
125	0xbd2f9f91	-0.042876784
126	0x3bbf0855	0.0058298507
127	0xbc5b9f64	-0.013404701
128	0x3b42e9c0	0.0029741377
129	0x3da6c2b4	0.081426054
130	0xbd391e5b	-0.045194965
131	0xbdbea520	-0.09308839
132	0x3ce386bb	0.027774205
133	0x3d3a4879	0.04547927
134	0x3d78ab3b	0.060710173
135	0xbbdfa4f0	-0.006825082
136	0xbd3407af	-0.04395264
137	0x3d569e22	0.0523969
138	0x3b91e02f	0.0044517736
139	0x3c6e947a	0.014561767
140	0x3d32dce7	0.0436677
141	0x3d9e25df	0.07722067
142	0x3b9a467a	0.0047081085
143	0x3d4e2167	0.050324824
144	0xba572303	-0.0008206816
145	0x3c6a419b	0.014297868
146	0xbd3cac5b	-0.04606281
147	0xbcf455a4	-0.029825993
148	0xbc6b63c1	-0.014367045
149	0xbd5751fb	-0.052568417
150	0x3c8d1f36	0.017226797
151	0xbd341702	-0.043967254
152	0x3c5ac186	0.013351804
153	0x3d16676f	0.036719736
154	0xbd9ba008	-0.07598883
155	0xbccc5dd9	-0.024947094
156	0xbd9951e6	-0.07486324
157	0xbbe1c8f8	-0.0068904124
158	0xbc81d1c7	-0.0158471
159	0x3ad68785	0.0016367292
160	0x3c1675d9	0.0091833705
161	0x3d81859b	0.06324311
162	0x3ae6803b	0.0017585823
163	0xbc9e0243	-0.019288188
164	0x3d0d194d	0.034447957
165	0x3d0fd536	0.035115443
166	0x3d4981bb	0.049195986
167	0xbd06fe32	-0.032957263
168	0x3d0adbef	0.03390115
169	0xbd97cba0	-0.07411885
170	0x3d48353c	0.048878893
171	0x3b59067b	0.0033115435
172	0x3ca97252	0.020684395
173	0x3c5391fb	0.012913222
174	0x3be8b49d	0.007101609
175	0x3cf0b12a	0.029381353
176	0xbd349b8c	-0.044093654
177	0xbb11836e	-0.0022203582
178	0xbcb5faa1	-0.022214236
179	0xbc916959	-0.017750429
180	0x3d027b2d	0.03185575
181	0xbca4b05c	-0.020103626
182	0xbc8204be	-0.015871402
183	0xbb69ce29	-0.003567586
184	0x3d16c4ae	0.036808662
185	0x3c54a568	0.012978889
186	0x3d3e7b43	0.04650427
187	0x3cfafac8	0.03063716
188	0x3d243e85	0.040098686
189	0xbdbd0e58	-0.092312515
190	0xbd060dde	-0.03272807
191	0x3d3204ab	0.043461483
192	0x3cc93d5e	0.024565395
193	0x3d308b7d	0.043101776
194	0xbd52dcef	-0.05148023
195	0x3dc500ea	0.09619315
196	0x3d4fce9c	0.050734147
197	0xbba2f6a8	-0.0049732514
198	0x3baeea95	0.005338023
199	0x3cd67b77	0.02618192
200	0xbddff7c0	-0.109359264
201	0x3d2b29b9	0.041787837
202	0xbd8ec461	-0.0697105
203	0x3d9a8b83	0.07546141
204	0x3ce3cecb	0.027808568
205	0x3c994335	0.018708805
206	0x3d0fee75	0.03513952
207	0x3c1a3527	0.009412087
208	0xbcb00ac2	-0.021489505
209	0x3d8df19c	0.06930849
210	0x3cb9f230	0.022698492
211	0x3d2aecbd	0.041729677
212	0x3d916fab	0.07101377
213	0xbd533249	-0.051561628
214	0x3d0245bc	0.031804785
215	0xbe074109	-0.13208403
216	0xbd6b44cf	-0.057438668
217	0x3c48ac5a	0.012248123
218	0x3d360cf3	0.044445943
219	0xbd685858	-0.056724876
220	0x3a4fce6a	0.00079271814
221	0xbd0db4e0	-0.034596324
222	0xbc172d4d	-0.009227109
223	0xbcfd3255	-0.03090779
224	0xbc9f4298	-0.019440934
225	0xbcbac323	-0.022798127
226	0x3c4e5147	0.01259262
227	0xbb63d2fa	-0.0034763203
228	0xbba5c31b	-0.005058659
229	0xbb956f13	-0.00456036
230	0x3d3ceb8f	0.046123084
231	0x3da9ce16	0.08291261
232	0x3c61e182	0.013786675
233	0x3d0aa7d2	0.033851452
234	0xbabcb13c	-0.0014396082
235	0xbc11baf4	-0.008894671
236	0xbb9bef57	-0.004758756
237	0x3cfb447b	0.030672302
238	0x3c88b271	0.01668665
239	0xbd2d6989	-0.042336974
240	0x3d121bab	0.035670917
241	0xbceef448	-0.029169217
242	0xbd8bf5b6	-0.06833975
243	0x3c10c414	0.008835811
244	0xbcbeaf62	-0.023276988
245	0x3d277b99	0.040889356
246	0xbd8a7874	-0.06761256
247	0xb9b8c1a5	-0.0003523949
248	0xbd180173	-0.037110757
249	0xbcac5ffc	-0.021041863
250	0xbd70a0b7	-0.05874702
251	0xbb580eab	-0.0032967727
252	0xbc8a9017	-0.01691441
253	0xbd3059c9	-0.043054376
254	0x3c744db9	0.014911109
255	0x3c01bec1	0.007919014

fc2.bias f4 [128]
0	0x3d970c7e	0.073754296
1	0x3d3d1e56	0.04617151
2	0xbc717a89	-0.014738687
3	0x3b0b2689	0.0021232686
4	0x3d7a0659	0.06104121
5	0x3d36065c	0.04443966
6	0xbd3eaef9	-0.046553586
7	0x3cfe0636	0.031008821
8	0x3d81585f	0.063156836
9	0x3d3b0ed5	0.04566844
10	0xbcd97f68	-0.02655001
11	0xbd5be472	-0.05368466
12	0x3c375787	0.011190302
13	0xbc510168	-0.012756683
14	0x3d3b0a97	0.045664396
15	0x3c1ce5f0	0.009576306
16	0xbd18b13d	-0.037278403
17	0x3d76e5f3	0.06027789
18	0x3da84423	0.08216121
19	0x3a12a7b9	0.00055944506
20	0xbd82c63a	-0.06385465
21	0xbcfddaf1	-0.030988188
22	0xbccdbeef	-0.025115458
23	0xbc547d3b	-0.01296931
24	0xbd364195	-0.044496138
25	0xbd3425d2	-0.04398138
26	0x3c980592	0.018557344
27	0x3d6cd6f3	0.05782218
28	0x3cc40aa4	0.023930855
29	0x3db04a5a	0.086079314
30	0x3d2d54ec	0.042317316
31	0xbd01c770	-0.03168434
32	0x3da5cf5d	0.08096192
33	0x3d8d80f8	0.069093645
34	0x3d95adbb	0.07308527
35	0xbc8b7ccf	-0.017027287
36	0xbd538aac	-0.05164592
37	0x3c8f35a9	0.017481642
38	0x3c3daca4	0.011576805
39	0x3d3f55eb	0.046712797
40	0xbc0d8ecb	-0.0086400015
41	0x3da06850	0.07832396
42	0x3d86297b	0.065508805
43	0x3cf16e4f	0.029471545
44	0x3d92dd53	0.071711205
45	0xbc99028a	-0.018677969
46	0xbcd46a50	-0.0259296
47	0x3ccc11f4	0.024910904
48	0xbd05b486	-0.032642864
49	0x3c9f936b	0.019479474
50	0xbbe07140	-0.006849438
51	0x3d94eeb7	0.07272094
52	0x3d280dad	0.041028667
53	0xbbe5cbea	-0.007012834
54	0xbc828708	-0.015933529
55	0xbca681bc	-0.020325534
56	0xbd2c4dd4	-0.04206641
57	0x3d39116f	0.04518264
58	0xbd0023d7	-0.03128418
59	0x3d6a718e	0.0572372
60	0x3ceba123	0.02876336
61	0x3cfc4a34	0.030797102
62	0xbd2e34f6	-0.042530976
63	0x3d589021	0.052871827
64	0xbc9ace20	-0.018897116
65	0x3ccd29fd	0.025044436
66	0x3d06a512	0.032872267
67	0x3d13ec53	0.03611405
68	0x3c8a80ca	0.016907115
69	0x3d03e9ad	0.032205272
70	0xbd4165aa	-0.047216095
71	0x3d8456b9	0.064618535
72	0xbcf92f8e	-0.030418184
73	0x3d61b092	0.05510003
74	0x3d1d0c38	0.03834173
75	0x3d387b58	0.045039505
76	0x3c99856f	0.018740384
77	0x3d9b36ea	0.075788334
78	0xbca8edf0	-0.02062127
79	0x3cb979fe	0.022641178
80	0x3d3326f4	0.04373832
81	0xbd3f3649	-0.04668263
82	0x3d628a14	0.055307463
83	0x3d8bad1c	0.06820127
84	0x3d128ff6	0.035781823
85	0x3ceb034b	0.028688094
86	0x3d3e6fdd	0.0464934
87	0x3d9418f2	0.072313204
88	0x3cc0744b	0.023492953
89	0xbd01172f	-0.03151625
90	0x3d566277	0.052339997
91	0x3c0d41e2	0.008621665
92	0xbcccde27	-0.025008274
93	0xbd40581e	-0.046959035
94	0x3d3dd747	0.046347883
95	0x3d00e4ed	0.03146832
96	0x3d7096bc	0.0587375
97	0x3d25428f	0.04034668
98	0xbd0a3a52	-0.033747025
99	0x3c98cb5e	0.01865166
100	0xbce7a942	-0.02827895
101	0x3d1c9f3b	0.03823779
102	0x3d0334ee	0.0320329
103	0x3d80dd59	0.06292219
104	0xbcb61caa	-0.022230465
105	0x3d9b0764	0.07569769
106	0x3d4b247a	0.049595334
107	0xbce6ca30	-0.028172582
108	0xbcbb9834	-0.022899725
109	0x3da0cd5a	0.07851668
110	0xbd1678be	-0.036736242
111	0xbbe754d7	-0.0070596742
112	0xbd6415c3	-0.055684816
113	0xbcc17a4a	-0.023617882
114	0x3d36dcb9	0.04464409
115	0x3cad9ded	0.021193469
116	0xbd197140	-0.03746152
117	0xbacd6e0c	-0.0015673055
118	0xbc812140	-0.015762925
119	0x3d4e408b	0.05035452
120	0x3d338832	0.043831058
121	0x3ca82a25	0.020527909
122	0x3d332f27	0.04374614
123	0xbd420d3a	-0.047375895
124	0x3d14e4bd	0.036350954
125	0xbce0dd21	-0.027449192
126	0xbd438e0a	-0.04774288
127	0x3d4382fc	0.04773234

fc2.weight f4 [128, 256]
0	0xbb2fa785	-0.002680273
1	0x3ac70e7b	0.0015186811
2	0xbc7e5a65	-0.015524481
3	0xbd12d5f7	-0.035848584
4	0xbd405edf	-0.046965476
5	0xbd1af64c	-0.037832543
6	0xbd4f7338	-0.05064699
7	0x3da6dc4b	0.08147486
8	0xbd53586a	-0.05159799
9	0x3d4e7329	0.050402794
10	0x3c8dad5a	0.017294575
11	0x3d033728	0.032035023
12	0x3cf64277	0.03006099
13	0x3cda66a1	0.026660265
14	0xbd79a6be	-0.060950033
15	0x3d1a25bd	0.037633646
16	0x3ec4bcc6	0.38425273
17	0x3c757d2b	0.014983456
18	0xbdf062d2	-0.117375985
19	0xbd80ff9a	-0.06298752
20	0x3ef1081c	0.470765
21	0x3d838042	0.064209476
22	0x3dda0b6c	0.1064671
23	0x3c79412e	0.015213294
24	0xbd8812c6	-0.06644206
25	0x3ce0542d	0.027383888
26	0x3ea1a467	0.31570742
27	0x3b73c93f	0.003719881
28	0x3d4bff4e	0.049804024
29	0x3dca21f3	0.098697565
30	0xbd5393ac	-0.051654503
31	0x3dccbce7	0.09996968
32	0x3d0bc747	0.034125593
33	0x3df0b20b	0.11752709
34	0x3d6072a8	0.054796845
35	0xbc1999fd	-0.009375093
36	0xbd32e47b	-0.043674927
37	0x3c13dc8d	0.009024751
38	0x3db48c5c	0.08815834
39	0x3ceef91c	0.029171519
40	0x3dd89ca9	0.105767556
41	0x3d580197	0.05273589
42	0xbce106aa	-0.027468998
43	0xbdee005c	-0.11621162
44	0x3d9d2803	0.07673647
45	0x3bfeb623	0.007773177
46	0xbc5da52e	-0.013528151
47	0x3db92427	0.09040099
48	0x3d783960	0.060601592
49	0x3e007a2e	0.12546608
50	0x3d19c7bc	0.037543997
51	0x3d328ca0	0.04359114
52	0x3c81d220	0.015847266
53	0x3d49072a	0.049079098
54	0x3cf53432	0.029932115
55	0x3df960dc	0.121766776
56	0x3ead424b	0.3383964
57	0x3d108165	0.03527965
58	0x3de39d21	0.11113954
59	0x3da04efa	0.078275636
60	0x3dc31f78	0.095274866
61	0xbe8ebe14	-0.27879393
62	0xbb985827	-0.0046491805
63	0xbcc6e548	-0.024279252
64	0xbd1104d1	-0.035404984
65	0xbd22d424	-0.039753094
66	0x3df739e9	0.12071592
67	0x3dae34a1	0.08506132
68	0x3d79d5d3	0.060994934
69	0xbdc4f1ab	-0.09616407
70	0xbda5a846	-0.08088736
71	0xbd6d1884	-0.057884708
72	0xbeb1fbba	-0.34762365
73	0x3edede49	0.43528965
74	0xbd0ffd85	-0.035153884
75	0xbd43cdc8	-0.04780367
76	0x3d9b6e88	0.075894415
77	0x3dd7194d	0.105028726
78	0xbda59199	-0.08084411
79	0x3daf33a8	0.085547745
80	0xbe2876d3	-0.16451578
81	0xbd2e2f4e	-0.042525582
82	0x3d29751e	0.041371457
83	0x3c9bb809	0.019008653
84	0x3dd47855	0.10374514
85	0x3d8bbb27	0.06822806
86	0x3d590e4e	0.052992158
87	0x3d904f50	0.07046378
88	0x3f011d9d	0.5043581
89	0x3f05a7da	0.52209246
90	0xbdf51d87	-0.119685225
91	0x3e11a62c	0.14223546
92	0xbd3312de	-0.043719165
93	0xbd4228cf	-0.0474022
94	0x3d890c33	0.0669178
95	0xbdc6980a	-0.09696968
96	0xbddfa991	-0.10921014
97	0x3d9010d5	0.070344605
98	0xbd337d02	-0.04382039
99	0x3cde0ac2	0.02710474
100	0x3d1a92f6	0.03773781
101	0xbb930b70	-0.0044874474
102	0xbd8c6f11	-0.06857122
103	0x3ddc6b71	0.1076268
104	0x3c550482	0.013001563
105	0x3cd6c1f1	0.026215525
106	0x3dd39a8c	0.10332212
107	0x3c7be7ef	0.0153751215
108	0xbd58c505	-0.052922267
109	0x3d2e5451	0.04256088
110	0xbd2276bc	-0.039664015
111	0xbd1ebf64	-0.038756743
112	0x3ce2913c	0.027657144
113	0x3df236e7	0.11826878
114	0x3dfc1c25	0.12310056
115	0xbcdf759f	-0.027277766
116	0xbd9a8fb2	-0.07546939
117	0x3d3245d1	0.043523613
118	0x3d54c230	0.051943004
119	0x3dd69e3f	0.10479402
120	0x3b0de808	0.0021653194
121	0xbd92f94f	-0.07176458
122	0x3ed7d56e	0.4215502
123	0x3e46ee46	0.19426832
124	0x3dba90cf	0.09109651
125	0x3e22ac74	0.15886098
126	0x3dd98393	0.10620799
127	0x3c92ea5c	0.017934017
128	0xbdd3f52e	-0.10349499
129	0x3d94d45f	0.07267069
130	0x3eb25a4a	0.3483451
131	0x3ce0c3dc	0.027437143
132	0x3d440974	0.047860578
133	0xbd8b448b	-0.06800183
134	0x3cdf9f42	0.02729762
135	0xbdf6b33b	-0.12045904
136	0x3d07a7bc	0.03311895
137	0x3dbf2bdf	0.093345396
138	0xbd83265a	-0.06403799
139	0xbd6e82b7	-0.05823013
140	0x3db7f507	0.08982282
141	0xbd9d26c4	-0.076734096
142	0x3d8c056d	0.068369724
143	0xbd1997d7	-0.03749832
144	0xbd570710	-0.05249697
145	0x3db5623f	0.088566296
146	0x3db7889a	0.089616016
147	0x3bc7c887	0.006096903
148	0x3b1721c9	0.002306091
149	0x3dbbaebd	0.09164188
150	0x3e121f01	0.1426964
151	0x3d953f7b	0.072874986
152	0xbb3a3bb4	-0.0028416933
153	0x3dd2af78	0.10287374
154	0x3d8b1c74	0.067925364
155	0x3dfbd14c	0.122957796
156	0x3d456773	0.04819436
157	0x3e08c4c5	0.13356312
158	0x3c340b2e	0.010988994
159	0x3d27c604	0.040960327
160	0xbdde3cb9	-0.10851426
161	0x3d07e1c1	0.03317428
162	0xbdd43a2c	-0.10362658
163	0xbcf92b5b	-0.030416181
164	0xbddda12d	-0.108217575
165	0xbd7d06a2	-0.061773904
166	0xbda90196	-0.082522556
167	0x3da150a5	0.0787671
168	0xbda7030a	-0.081548765
169	0xbdd709b5	-0.10499898
170	0xbe84dff2	-0.25952107
171	0x3d44506c	0.04792826
172	0xbda6e448	-0.0814901
173	0xbe540ed2	-0.20708779
174	0xbda5818b	-0.08081349
175	0x3c846117	0.016159577
176	0x3dba03d3	0.09082761
177	0x3c5fcb78	0.013659351
178	0xbded3240	-0.1158185
179	0x3bfa167f	0.0076320763
180	0x3d526d92	0.051374026
181	0x3d937912	0.07200827
182	0xbd569277	-0.052385774
183	0x3e992b94	0.2991606
184	0x3d2a05a5	0.04150929
185	0xbd178994	-0.03699644
186	0x3dc62d36	0.09676592
187	0x3d3b5cd4	0.045742825
188	0xbd5f5388	-0.05452302
189	0xbcc02879	-0.023456799
190	0xbdd66a89	-0.10469539
191	0xbc1c62b8	-0.009545021
192	0x3d003010	0.031295836
193	0xbdc302cb	-0.09522017
194	0xbddf0a99	-0.10890693
195	0x3d74a64b	0.0597289
196	0x3d68a5be	0.05679869
197	0xbced71b8	-0.02898489
198	0x3d06d4a0	0.03291762
199	0xbd94612e	-0.07245098
200	0xbed9f121	-0.4256678
201	0x3d9def29	0.07711632
202	0x3dc2dd46	0.09514861
203	0xbd68da49	-0.056848798
204	0xbd80e775	-0.06294147
205	0xbd3cff55	-0.04614194
206	0x3d73f6cd	0.05956154
207	0x3efc9594	0.4933287
208	0x3d426e98	0.04746875
209	0xbea92f39	-0.3304384
210	0x3c878f8b	0.016547939
211	0x3b80bbe7	0.0039286497
212	0x3d9b62f3	0.075872324
213	0xbdb2fdbc	-0.08739802
214	0x3d13eac8	0.036112577
215	0x3de284ee	0.110605106
216	0x3d84d73d	0.06486366
217	0xbc2d84f9	-0.010590785
218	0x3d366c20	0.04453671
219	0x3d7f4353	0.062320065
220	0x3dd7b1ff	0.10531997
221	0x39ef5bfb	0.00045654163
222	0x3d853f22	0.06506182
223	0xbc865ab2	-0.016400669
224	0xbd85155f	-0.06498217
225	0x3c87fbfc	0.016599648
226	0xbe31e5e5	-0.17372854
227	0xbd2ddfcd	-0.04244976
228	0xbccb1e54	-0.024794735
229	0x3d89696d	0.067095615
230	0xbdb31491	-0.08744157
231	0x3eba5467	0.3639252
232	0xbbb54e53	-0.0055330186
233	0x3d94d48b	0.07267102
234	0x3c9b9915	0.018993894
235	0xbd0b505d	-0.034012187
236	0xbd52f0c1	-0.051499132
237	0x3da3b57b	0.07993599
238	0x3dbd64f2	0.092477694
239	0x3d6d3305	0.057909984
240	0x3d6ebe68	0.058287054
241	0x3cf38fcc	0.029731654
242	0x3db096e8	0.08622533
243	0xbc4d22b5	-0.012520482
244	0xbc879167	-0.016548825
245	0x3dded2e0	0.10880065
246	0x3d508e1a	0.05091677
247	0x3da6ff12	0.081541196
248	0x3dd468ba	0.103715375
249	0xbc38d842	-0.011282029
250	0x3cc548b1	0.024082514
251	0x3d7597cd	0.05995922
252	0xbcfc82dd	-0.03082412
253	0x3e1bb3eb	0.15205352
254	0x3c3d1434	0.011540461
255	0xbd39ec45	-0.04539134

fc3.weight f4 [1, 128]
0	0x3e4b7ad3	0.19871072
1	0xbe4f8c61	-0.20268394
2	0xbb3682e4	-0.0027849013
3	0xbda4a5a9	-0.0803941
4	0xbe849a63	-0.25899038
5	0xbe900722	-0.28130442
6	0xbb1667d0	-0.002295006
7	0xbe894800	-0.26812744
8	0x3e5bdd3c	0.21471113
9	0xbe662133	-0.22473602
10	0x3cbf3b63	0.023343747
11	0x3c86cdaf	0.0164555
12	0xbe853c4d	-0.26022568
13	0xbcb5d97b	-0.02219843
14	0x3e3c17d9	0.18368472
15	0xbc2d0189	-0.010559448
16	0x3d00d27c	0.031450734
17	0x3e5dfe38	0.21679008
18	0x3e2116c4	0.1573134
19	0xbd014561	-0.031560306
20	0xbd6e40e6	-0.05816736
21	0xbc4c578d	-0.012472046
22	0x3e81410a	0.25244933
23	0x3c9c97ae	0.019115295
24	0xbd99e654	-0.07514635
25	0x3c17bcc7	0.009261317
26	0xbe74bd58	-0.23900354
27	0x3e22a64b	0.15883748
28	0xbe7b5a1a	-0.2454609
29	0xbe85b1a3	-0.2611209
30	0xbe52fb3a	-0.20603648
31	0xbc6694c9	-0.014073559
32	0x3e4311cd	0.19049759
33	0xbe9174f0	-0.2840953
34	0xbe84299e	-0.25813
35	0xbd8f105e	-0.06985544
36	0xbd46b888	-0.048515826
37	0x3e2a1dc9	0.16612925
38	0x398ec6b1	0.00027232387
39	0xbe4a6d0d	-0.19768162
40	0x3e66b8a6	0.22531375
41	0x3e3eccd8	0.18632829
42	0x3e1a7055	0.15081914
43	0x3e59f00e	0.2128298
44	0x3e68f205	0.22748573
45	0xb9c9a43d	-0.00038460075
46	0x3c96f49f	0.018427191
47	0xbe678a8b	-0.22611444
48	0x3d440a54	0.047861412
49	0xbe7df314	-0.24799758
50	0x3d22abd9	0.039714668
51	0x3e3ad64e	0.18245813
52	0x3e3577be	0.1772146
53	0x3e21e60b	0.1581041
54	0x3e7de6a9	0.24795021
55	0x3d4559c5	0.048181314
56	0xbd83b8ed	-0.06431756
57	0x3e460e85	0.19341476
58	0x3e4b831d	0.19874234
59	0x3e5a0eec	0.21294755
60	0x3e4535ea	0.19258848
61	0xbe7a0ab7	-0.2441815
62	0x3d78ab0f	0.06071001
63	0xbe738c76	-0.2378405
64	0xbbd64f2d	-0.0065402
65	0x3e415cf6	0.18883118
66	0xbe7ff756	-0.24996695
67	0xbe87fbd3	-0.26559314
68	0xbe9245d4	-0.285689
69	0x3e2ed88a	0.1707479
70	0xba00aeb1	-0.00049088435
71	0xbe715c5f	-0.23570393
72	0x3e281ded	0.16417666
73	0xbe954852	-0.2915674
74	0x3e4876d2	0.19576576
75	0xbe785449	-0.24250902
76	0xbe883d26	-0.26609153
77	0x3e2bbb01	0.16770555
78	0xbda892f0	-0.08231151
79	0xbe8ae12f	-0.27124926
80	0xbe7bbc1c	-0.24583477
81	0x3d20eae9	0.039286528
82	0xbe619a81	-0.22031595
83	0xbe7fe854	-0.2499097
84	0xbe83a2b9	-0.25710085
85	0x3e2ba62d	0.1676261
86	0x3e32784f	0.17428707
87	0xbe8b1624	-0.2716533
88	0xbe605a45	-0.21909435
89	0x3c78617d	0.015159962
90	0xbe63b3af	-0.22236513
91	0xbe8ac3d1	-0.2710252
92	0x3e7ec33d	0.24879165
93	0xbd1be310	-0.03805834
94	0xbe6759e5	-0.22592886
95	0xbe5c1943	-0.21494012
96	0x3e32575d	0.17416139
97	0xbe7dae5b	-0.24773543
98	0xba8be03e	-0.0010671688
99	0x3e3f697d	0.18692584
100	0x3d781c91	0.060574118
101	0xbe6b4276	-0.22974572
102	0xbea3235e	-0.3186292
103	0x3e4fea45	0.2030421
104	0x3d05ba5c	0.03264843
105	0xbe791014	-0.2432254
106	0xbe6f4d1e	-0.23369262
107	0xbcc647dc	-0.024204187
108	0x3cdb635f	0.026780782
109	0x3e57eb3c	0.21085829
110	0xbd976258	-0.073918045
111	0xbea52dc0	-0.32261467
112	0xbd94b44a	-0.0726095
113	0x3e374261	0.17896415
114	0xbe5e4ce9	-0.21709026
115	0xbe77b7d8	-0.24191225
116	0xbc7d9f57	-0.015479884
117	0x3e6321f2	0.22180918
118	0xbb5df309	-0.0033866784
119	0xbe8d7eec	-0.27635896
120	0x3e3f37ec	0.18673676
121	0xbe7f477c	-0.24929613
122	0xbe73a1f4	-0.23792249
123	0x3e32ff1d	0.1748013
124	0xbe8202f8	-0.2539289
125	0x3c946c80	0.018118143
126	0x3d4713d3	0.04860289
127	0xbe80389f	-0.25043198
